src/german_vzv/best_model.pth (torch, 2472 bytes, 3 tensors)

conv1.bias f4 [16]
00000000: a34c 17bd 4952 fabc 9374 b2bd 9f4c 333e
00000010: c229 103d e640 c53d dd17 c13d 39e5 fc3d
00000020: e8b9 123e db03 a23d 6376 293b 3f7b babd
00000030: b728 093e 48f4 e8bd 769b f3bd ad60 9dbd
-0.03693832 -0.030556815 -0.08713641 0.17509697 0.035196073 0.09631519 0.0942838 0.12348408
0.1432873 0.079108916 0.0025857917 -0.091055386 0.13394438 -0.11374718 -0.11894886 -0.07684455

conv1.lin.weight f4 [16, 2]
00000000: 5725 ecbb 9ddf 9d3c 5826 b0bd 0b4c 6f3e
00000010: 3f92 b7be d751 ca3e b81b a0be 1cb2 acbe
00000020: 286d bcbd 0469 2d3e 9d82 9abe 5e49 133f
00000030: 85da 613e 080e c33e 6dee eb3e 0f0e f43d
00000040: 649a e13e 6de8 453e 1673 323e a74d 1f3f
00000050: 7105 c03e 1597 a1be 8464 e63e 8772 243e
00000060: 62cb 583e 00eb 21bf 1731 1d3e 369c 56be
00000070: a9ca b13e 1ffa b43e 94e6 a9be c11f be3e
-0.0072065997 0.019271666 -0.086010635 0.23368852 -0.35853764 0.39515564 -0.31271148 -0.33729637
-0.092005074 0.16934592 -0.30177775 0.57533824 0.22056015 0.38096642 0.46080342 0.11916744
0.44063103 0.19326945 0.17426714 0.62227863 0.3750415 -0.3156058 0.44998562 0.16059314
0.21171334 -0.63249207 0.15350758 -0.20958027 0.3472493 0.35347077 -0.3318373 0.371336

conv2.lin.weight f4 [1, 16]
00000000: 35e8 29be bd71 183d fb1d b5bd e3dc c0be
00000010: f79c 133f 9e5d d23e a1ed af3d 1f1c 2a3f
00000020: d31f 8f3e 01c3 a73d e245 703e ec12 9ebc
00000030: 5847 44bf 5a38 8f3e 3035 88be 444c 90bc
-0.16592486 0.037217844 -0.08843609 -0.37668523 0.57661384 0.4108705 0.08590246 0.6644916
0.27953967 0.08191491 0.23464158 -0.019296132 -0.7667136 0.2797268 -0.2660308 -0.017614491
