src/german_vzv/best_longterm_model.pth (torch, 136984 bytes, 8 tensors)

gcn.weights f4 [1, 64]
000000 7f 75 bb 3c 84 a7 2a 3e b5 f1 bd bd 33 2a 46 be
       0.022883175 0.16665465 -0.092746176 -0.19352035
000010 a8 9b 86 3d 76 cf e8 3e be 1a 32 be 31 e8 50 be
       0.06572658 0.4547078 -0.17393014 -0.20401074
000020 ed 7f e0 3e 1e a9 46 3e 04 62 7e 3d 44 04 84 3e
       0.438476 0.1940045 0.062105194 0.25784504
000030 a2 05 21 3e 75 8c 94 3d 5b af f2 be 11 f1 f4 3e
       0.15724805 0.072533526 -0.4739941 0.4784017
000040 9a 8a ad 3e 96 57 fe be 3b 22 97 3e 64 bf 82 bd
       0.33894807 -0.49676198 0.29518303 -0.06384161
000050 53 d8 58 be 8a 1b 03 bf f5 d4 c9 3e 28 7e 81 be
       -0.21176271 -0.51213896 0.39420286 -0.25291562
000060 24 82 80 bd 16 3f b7 be 3a e1 a3 3e 48 6c 12 be
       -0.06274822 -0.35790318 0.32007772 -0.14299119
000070 2b ca c1 be 6d f1 8a be e8 d3 a2 3e da 0f 31 be
       -0.37849554 -0.27137318 0.31802297 -0.17291203
000080 cf ff 79 3e aa b3 9d be 59 9e 36 3e f3 73 a5 3e
       0.2441399 -0.30801135 0.17833842 0.32315025
000090 10 07 f1 bd ab 7d cb 3e 5b 75 91 bd ef 38 84 be
       -0.11768925 0.39744315 -0.07102462 -0.25824687
0000a0 d1 6a d9 be 63 37 d4 3d a8 bb 51 be 5e a1 8f 3e
       -0.42464307 0.10362127 -0.20481741 0.280528
0000b0 94 e0 93 3e 58 31 71 be 40 c3 e7 be 8b be 4b be
       0.28882277 -0.2355398 -0.4526615 -0.19896905
0000c0 69 68 49 3e b7 06 03 3e aa aa d4 3d 7f fc db 3e
       0.19668736 0.1279553 0.10384114 0.42966077
0000d0 fd cb 9d 3d b0 00 ab be ff 99 af be e7 fc 61 3e
       0.07704923 -0.33398962 -0.34297177 0.22069131
0000e0 9b dc df 3e e8 69 dc be 2d e9 b2 be 45 5d a5 be
       0.43722996 -0.4304955 -0.34943524 -0.32297722
0000f0 13 01 b4 3d 53 b2 d1 be 2c 1a 01 bf 8a 7d 8b be
       0.087892674 -0.40956363 -0.5043056 -0.27244216

temporal_agg.weight f4 [64, 128]
000000 ca ac 29 bd 35 e8 06 3d 95 ba 97 bd 5b f6 90 bd
       -0.04142455 0.032936294 -0.074086346 -0.070782386
000010 66 26 a2 bd 8f ee f0 bc 2f 45 61 3d 5b 4b 81 bc
       -0.0791748 -0.029410629 0.05499762 -0.015783003
000020 49 2a b3 bd 5b 6d 04 3d 21 64 51 3c 9b 0d b0 bd
       -0.087483 0.032330852 0.01278022 -0.08596345
000030 dd 2a c4 bc 9c 30 1d bd ff aa fd 3c fc 33 8d 3d
       -0.02394622 -0.038376436 0.030965326 0.06894681
000040 eb ad 8c 3d b5 74 a4 3d 50 ea 2e bd b8 32 59 3b
       0.0686911 0.080300726 -0.042703927 0.0033141803
000050 ac 5f 83 bb c5 34 80 3d 7b 7e be bd fe 5e 83 3d
       -0.0040092077 0.06260065 -0.09301468 0.06414603
000060 f9 2f 93 bd e5 a6 9d 3d 31 e3 0d bd bb 47 be bc
       -0.071868844 0.07697848 -0.034640495 -0.023227563
000070 82 b9 20 bd 83 f2 a4 bb 99 39 24 bd 2c 10 57 3d
       -0.039239414 -0.0050337925 -0.040093992 0.052505657
000080 af 35 aa bc ab 8d 02 3d bc 76 8a 3d b5 81 86 bd
       -0.020777551 0.031873386 0.06760928 -0.065677084
000090 67 42 af 3d 97 3f ca bd 56 10 ae 3d 5d bb 17 bd
       0.08557587 -0.0987541 0.084992096 -0.037043918
0000a0 25 c4 4c bb e2 c7 71 bd e0 56 83 3d 7e 4c 1e bd
       -0.003124484 -0.059028514 0.064130545 -0.038647167
0000b0 1e 9a 9a 3c 11 62 7d 3c f7 5e 06 bc 51 8e eb bc
       0.018872317 0.015465275 -0.008201352 -0.028754385
0000c0 92 c9 55 bd 59 55 66 bd 31 bc ce 3b 83 0e 36 39
       -0.052194186 -0.056233738 0.0063090553 0.00017362279
0000d0 38 71 39 bd 6c b0 09 bd 01 c8 82 bc 11 86 bb 3c
       -0.04527399 -0.033615515 -0.01596451 0.022891076
0000e0 c8 dc d6 3c 57 ec 64 3c c3 3d b4 3d 9c b0 74 bd
       0.026228324 0.013972363 0.088008426 -0.05973874
0000f0 89 09 28 3d 80 7e 93 bc 35 c3 48 3c 83 9d ca 3d
       0.04102472 -0.018004656 0.012253572 0.09893324
000100 4a 76 08 bc 68 2a 82 bd e3 6d 63 bb ee 97 ab 3d
       -0.008328984 -0.063557446 -0.0034702949 0.08378588
000110 9c 96 23 bd 20 33 e0 bc d0 b8 4c bd 1c 0d ef 3c
       -0.039938554 -0.027368128 -0.04998094 0.029181056
000120 f5 22 b7 bd 9c 98 ad bd a3 56 f8 3c f6 6d d1 39
       -0.089422144 -0.084763736 0.03031475 0.00039945514
000130 8b 1c ed 3c ba d9 57 bc 62 4e 0d bc 62 0b 07 3d
       0.028944274 -0.013174469 -0.008624645 0.03296984
000140 61 cc cd bd d0 50 cb bc 15 fb d4 bd 40 a1 78 3d
       -0.10048748 -0.024818808 -0.103994526 0.060700655
000150 85 b2 8f bd 73 9e 0e 3d be 6c 5a 3d ee ce 9a bb
       -0.07016472 0.034819078 0.05332636 -0.004724375
000160 6c 15 0d 3d c1 58 6c 3c d3 e5 91 bd c2 c1 91 3d
       0.034444258 0.014425457 -0.071239136 0.071170345
000170 7b 77 0a 3d 7d d0 a8 3d 8f fa b8 3c fb ba 0c bd
       0.03380535 0.08242891 0.022580413 -0.034358006
000180 a3 1f cf bd b2 8b 5b 3d c8 6c 8c 3d 92 bf 6d bd
       -0.10113456 0.05360002 0.06856686 -0.058044024
000190 bd 78 08 bd 1e a9 dc 3a bc 14 52 3b e4 93 a4 3d
       -0.03331827 0.0016835069 0.0032055816 0.080360204
0001a0 84 38 24 3d 3c 23 0e 3d b5 7c ae bb 07 12 0e bd
       0.04009296 0.03470157 -0.005324925 -0.03468516
0001b0 2a 1e 65 3d 94 5f 89 bd 7e 2a 80 bd ab 87 66 3c
       0.05593697 -0.06707683 -0.06258105 0.014070432
0001c0 f5 16 7a 3d 8a 52 3d bd 84 5b 1d 3d 10 5a 63 3c
       0.06105705 -0.046221294 0.038417354 0.013876453
0001d0 23 8d 02 bd c3 69 99 3d 8b dd 42 3d c5 39 1a 3d
       -0.03187288 0.074908756 0.04757456 0.03765275
0001e0 be b4 2a 3d 71 92 ca 3d ed 1d 2e bd be f9 89 3d
       0.041676275 0.09891213 -0.04250901 0.06737088
0001f0 7d 09 87 3d 43 dc 75 ba f8 f7 be bb 34 27 89 3d
       0.065936066 -0.000937883 -0.0058279 0.066969305
000200 7b d7 c8 bb 61 16 86 bd c9 04 a8 3b 34 6f df 3c
       -0.006129203 -0.06547237 0.0051275236 0.027274705
000210 ec a0 4f 3d 58 50 1c 3d 83 4f 99 bd 49 61 47 3c
       0.050690576 0.03816256 -0.07485869 0.012169191
000220 cc d3 95 3d 47 15 7d bc 7c bb 93 3c 89 6b 26 3c
       0.07315788 -0.015446967 0.018033735 0.010157474
000230 07 c7 c6 bc c7 73 39 bd 9c 5d 8a ba df 57 e1 3a
       -0.024264826 -0.04527643 -0.0010556462 0.0017192325
000240 b8 c1 c0 3d 68 ee 5f 3d 7e 74 53 3d ce 43 37 bd
       0.09411949 0.05467072 0.051624767 -0.044742398
000250 82 c6 74 bd 37 94 34 bd e5 79 0c 3c 5c 85 97 bb
       -0.059759624 -0.04408666 0.008573984 -0.004624052
000260 b8 c1 9a 3d fc 1d 26 3c 5a 2b 86 ba d7 11 98 3d
       0.0755648 0.010138985 -0.0010236308 0.07425278
000270 f1 c2 aa 3c 93 1a 56 bc e1 66 0b 3d 25 88 a3 bd
       0.020844908 -0.013067859 0.03403366 -0.07984952
000280 5c b1 b3 3d 69 1f 74 bd 58 24 a7 3d a7 9f 59 3d
       0.08774063 -0.059600268 0.08161229 0.053130772
000290 a7 2a 7d 3d e2 4d 75 bd c7 b2 de bc 05 a0 87 bb
       0.061808255 -0.059888728 -0.027184857 -0.004138949
0002a0 72 cc 9a bd 35 76 a9 3d c7 32 48 3c fc 39 82 bd
       -0.07558526 0.08274499 0.0122191375 -0.06358716
0002b0 a1 13 9b bd 02 17 98 3d 99 7a 42 3d 8e 64 54 3b
       -0.07572103 0.074262634 0.0474802 0.0032408568
0002c0 7f dc a1 3d 98 3b b4 3d da 40 24 3c 80 24 82 3d
       0.079033844 0.08800429 0.010025227 0.06354618
0002d0 43 a9 35 bd ca b2 ce bc bf 00 d3 bc 20 6f ba bc
       -0.044350874 -0.025231738 -0.025757192 -0.022758067
0002e0 3c 70 39 3d c1 23 a5 bd 68 d9 7a bd 1b 70 14 3c
       0.04527305 -0.0806346 -0.06124249 0.009059931
0002f0 da c9 43 3c 00 3d c0 bd 2f 2a 1c 3d 29 6d c0 3c
       0.011949981 -0.09386635 0.038126167 0.023489552
000300 13 94 a6 3d e4 61 da 3c 0f d5 96 3c 53 11 53 bd
       0.08133712 0.026658006 0.018412141 -0.051530194
000310 6a 91 05 3d 44 a8 7f bc 88 9b 27 3d 9a 31 3d bb
       0.03260938 -0.0156040825 0.04091981 -0.0028868676
000320 f4 e9 75 3b 6d c5 3f 3d b7 cd 0c 3d 9f 89 a8 3d
       0.003752348 0.04681914 0.034375872 0.08229374
000330 d5 eb ea bc d4 a4 0f bd 01 2e 06 bd 70 88 85 3d
       -0.028676907 -0.0350693 -0.032758716 0.06520164
000340 e0 99 90 bc 52 83 bf bd 5d c8 93 bd 66 67 94 bd
       -0.017651498 -0.09351219 -0.07215951 -0.07246284
000350 81 4e 6a 3d 5b c3 ff 3c 34 3c c7 3d 8a 2c 84 bd
       0.057203773 0.031221082 0.0972828 -0.06453808
000360 91 03 42 bc 3a b2 7f bd af 06 5b 3d 1b 4d 89 3d
       -0.011841671 -0.06242583 0.05347317 0.0670416
000370 f4 07 72 bc 71 00 a3 bd 65 14 78 3d 9d 29 42 bd
       -0.014772404 -0.079590686 0.060566325 -0.047402967
000380 fd 69 8d 3d ea 87 48 bc 95 74 07 bd 45 3a 4a bc
       0.06904981 -0.012239436 -0.033070166 -0.012342994
000390 ec b8 19 3d d9 63 1b 3d e6 3d c4 bd 01 fe 4d bd
       0.03752987 0.03793702 -0.09582119 -0.050291065
0003a0 29 0f 5e 3d f4 9f a8 3d 3b df 92 3d de bf 93 bb
       0.054213677 0.08233634 0.07171484 -0.0045089563
0003b0 a2 29 f4 bc 92 d8 7d bd 5e d1 84 bd f7 ff 9b bd
       -0.029805008 -0.061974116 -0.06485246 -0.07617181
0003c0 16 0b 8a 3d 04 9c 89 b8 1a f9 cb 3d 40 86 7e bd
       0.06740396 -6.561729e-05 0.09959622 -0.06213975
0003d0 5a 05 ca 3c 52 1d bc bd 41 27 2a 3d 8a 7d cd 3d
       0.024660755 -0.0918528 0.04154134 0.1003371
0003e0 d6 40 24 3d 5e 0d 02 ba ef d2 6f bd f4 9b 3b 3d
       0.040100895 -0.00049610983 -0.05855077 0.045803025
0003f0 65 93 41 3d e3 30 0f 3d c6 dc 6f 3c 34 ed a0 bc
       0.047259707 0.03495873 0.014640039 -0.019644357

temporal_agg.bias f4 [64]
000000 f3 df ab bc 80 e1 80 bd 1b d0 69 bc 64 c1 25 3d
       -0.02098081 -0.06293011 -0.014270808 0.040467635
000010 df f8 a6 3c b1 d3 0c bc 17 f7 5b bd 04 2a 2b bd
       0.020382343 -0.008595393 -0.05370244 -0.041788116
000020 5e 70 f7 3c 81 b7 c7 3c df 12 c7 3d 14 bd b5 3c
       0.030204948 0.024379494 0.09720396 0.022184886
000030 76 d7 83 3d 8d 87 c4 bc 79 02 a5 3c 60 ab ae 3d
       0.0643758 -0.023990417 0.02014278 0.08528781
000040 9c 68 22 bd 78 f1 5c bd 94 de 9c 3d 8a f6 7b 3d
       -0.039650545 -0.05394122 0.07659641 0.061514415
000050 ac 0e 22 3c ff 22 4d bd 51 64 62 3d 95 e5 b9 3d
       0.009891193 -0.050082203 0.05527145 0.090769924
000060 72 bc b6 bc 65 7b 54 3c 4d b0 80 3d 51 84 ef 3c
       -0.022306655 0.012968873 0.06283627 0.029237898
000070 f2 c0 90 3d 66 01 5b 3d 24 0c b9 bb dd 2c d9 3b
       0.070680514 0.05346813 -0.005647199 0.0066276626
000080 83 61 89 3b 7e 04 76 3d 40 98 4d 3c 46 6d 4c bd
       0.0041925325 0.060062878 0.012548506 -0.0499089
000090 12 50 6e bc 6c ab 54 bd 7f 33 bc bc e6 c7 5b 3c
       -0.014545457 -0.051921293 -0.022973774 0.013414359
0000a0 ef 2a c4 bc 00 43 8b 3c a2 a8 f9 bc f0 b8 b9 3d
       -0.023946254 0.016999722 -0.030475918 0.09068477
0000b0 dc 58 c3 3d 16 e0 32 bd eb e4 d9 3c 5f 7e cc 3c
       0.09538433 -0.043670736 0.026598414 0.024962602
0000c0 8e f8 80 bd 90 5c 41 bc 0e 01 87 bd 4b 97 90 3d
       -0.06297408 -0.011801854 -0.06591998 0.07060107
0000d0 dc 4f b3 bd cb 34 16 bd db a5 65 3c dc 21 c1 3d
       -0.08755466 -0.03667144 0.014016594 0.09430286
0000e0 dc 1d b0 3d 09 57 34 bd d7 94 00 bd 83 91 85 3d
       0.08599445 -0.044028316 -0.031391945 0.06521895
0000f0 a8 7f 17 bd 1c b8 a4 3d b7 e8 87 bd e8 5b a3 bd
       -0.036986977 0.080429286 -0.06636184 -0.07976514

gru.weight_ih f4 [192, 64]
000000 23 1b 17 3d 47 51 9c bd a2 bf 34 3d 38 49 78 bd
       0.036891114 -0.0763269 0.044128068 -0.0606167
000010 fe d1 a8 3c 87 cf 7b bd ff 54 92 3c 38 24 32 bd
       0.020607945 -0.06147721 0.017862795 -0.043491572
000020 0f 2f e8 3d 80 a0 0e 3e 0b 8c f3 3c fb a6 82 bd
       0.11337101 0.13928413 0.029729864 -0.06379505
000030 c3 84 88 bd 94 79 8e bd 98 8c d0 3d 7d f3 a1 3d
       -0.06665947 -0.06956783 0.10183066 0.0790777
000040 de e4 a5 bd ac ff 62 bc c6 ec 79 bd bc c9 ca 3d
       -0.081002936 -0.013854902 -0.06101682 0.09901759
000050 6e 8d 52 bb ae 2b c3 3d 52 aa 6d 3d 5a 9b 86 bd
       -0.0032127756 0.095298156 0.05802376 -0.065726
000060 b1 c2 c7 bc 76 99 c7 bd 3c 2a 7a 3d 5b cc 58 bc
       -0.024384828 -0.09746067 0.061075434 -0.013232316
000070 83 0d 95 bd 91 95 90 bd 17 08 c1 bc ac 82 b4 bd
       -0.07277968 -0.070597775 -0.023563428 -0.08813986
000080 02 3f c6 3d 47 c1 14 bd 01 55 2a 3d c3 a1 fe bd
       0.096799865 -0.036317136 0.041584972 -0.12433197
000090 84 c1 ad 3b 80 fe ea 3c 4e fd 98 3d 35 cf 83 3d
       0.00530261 0.028685808 0.07470189 0.06436006
0000a0 67 75 d1 3d b3 ae 97 bd 0c eb 79 3d 76 91 d1 bd
       0.10227471 -0.07406368 0.061015174 -0.102328226
0000b0 7e 12 05 3e da 1b 9a 3b 65 bb bb 3d bc 58 e3 3d
       0.12995335 0.004703027 0.09166602 0.11100909
0000c0 0c b3 b1 3d 80 13 e7 b9 fe 02 b2 3d 33 6d 50 3d
       0.086767286 -0.00044074282 0.08691977 0.05088539
0000d0 fa 00 86 ba 2b 22 c3 bd 77 60 02 bc f5 ac 43 3d
       -0.001022368 -0.095280014 -0.007957569 0.047772367
0000e0 7f de 4b 3d ae f6 dc bd 58 0b 98 3b ae 5b fc 3d
       0.049772736 -0.10789238 0.004640024 0.12322174
0000f0 e7 01 9b bd b3 d9 b6 3d ac 7a 1e 3d 85 36 37 bd
       -0.07568722 0.089282416 0.038691208 -0.04472973
000100 f3 38 54 bd c3 58 96 3d 32 aa f8 3d e5 16 fd 3d
       -0.051812124 0.07341149 0.12141837 0.123578824
000110 7b cb 63 bd f8 61 7a bd fe a7 c2 bc b9 80 de bd
       -0.055613976 -0.061128587 -0.023761746 -0.10864396
000120 bd 13 c4 bd c3 31 cb bd fc 50 9a bc 75 40 d4 3d
       -0.09574077 -0.09921601 -0.018837444 0.10363857
000130 44 e1 7a 3d 1b 15 92 3d 7a 16 9a 3a b5 69 ba bc
       0.061249986 0.07132932 0.0011755966 -0.022755483
000140 7e 9b 0d 3d ff c3 12 3d dc a2 02 be 3f 3b 4e bb
       0.034572117 0.035831448 -0.12757438 -0.003146842
000150 23 08 b1 bc a2 f7 94 bd df e2 0d bd c5 17 72 3c
       -0.021610325 -0.07273795 -0.03464019 0.014776175
000160 7e da 02 3d 6a 03 95 bd ec 06 79 3d 21 2f 22 3d
       0.03194665 -0.07276042 0.060797617 0.039595727
000170 c8 16 d2 3d 97 db cf 3d 23 3a a7 bd 14 3f a0 bd
       0.102582514 0.10149305 -0.081653856 -0.07824531
000180 fb 56 19 bd 9b 87 d5 3d 99 4e 75 3d cb c2 a0 3c
       -0.037436467 0.10426255 0.05988941 0.019624135
000190 85 53 c4 bd 1e 73 94 bd df ee d4 bd bf f9 89 3d
       -0.095862426 -0.07248519 -0.103971235 0.067370884
0001a0 b2 06 ec bd bb 42 3f 3d 49 a8 37 bc c0 2f 08 be
       -0.115247145 0.0466945 -0.011209556 -0.13299465
0001b0 b1 3f 97 3d 7e 0a c4 bd 12 3b d7 3d 1b 0f b0 3d
       0.07385195 -0.09572314 0.10509314 0.08596631
0001c0 ba 6d ae bd ab 1f e4 3b 53 3d 05 3e cc ab d8 3b
       -0.085170224 0.006961783 0.13011675 0.0066122767
0001d0 32 fe ae bd cd f3 78 bd 88 44 71 3d bb be 69 bb
       -0.08544578 -0.06077938 0.058903247 -0.0035666663
0001e0 ec 2c 51 bd 74 24 72 3c 4f 20 ce bd 8a f2 66 3d
       -0.05106823 0.014779199 -0.10064756 0.056383647
0001f0 44 9d a5 3a e1 46 ef bc 66 82 a1 bd 86 e5 dd bd
       0.001263537 -0.029208602 -0.078862 -0.10834794
000200 b2 a0 90 3d 0d 5f 1b 3d 88 24 bb bd 0e 1f cc bd
       0.070619 0.037932444 -0.09137827 -0.09966861
000210 94 8b 07 be eb 37 ac bb 75 33 de 3c bf be 2b 3d
       -0.13236839 -0.0052556894 0.027124146 0.041929957
000220 82 5c cf 3c d1 76 c4 bd 48 6a 08 3e 90 e2 9c 3d
       0.025312666 -0.09592975 0.13321793 0.07660401
000230 90 f6 07 be 11 8a 0e 3e c8 af 04 bc 1b 88 ed 3d
       -0.1327765 0.13919856 -0.00809855 0.11598226
000240 06 8b e0 3d ad ab 80 3a 92 d3 0d 3e a3 cc 30 3d
       0.109640166 0.0009816788 0.13850239 0.043163907
000250 0e ea d0 3d 94 0b 56 3d 8b bb de 3d 10 87 90 bd
       0.102008924 0.052257136 0.10875615 -0.07057011
000260 11 a8 5c bd 17 75 65 bd 38 0c 08 3e 23 ab be bd
       -0.053871218 -0.05601987 0.13285911 -0.093099855
000270 5d 8b e2 bd 75 e4 ad bc 65 fc c7 bc 2e 0f 0a 3d
       -0.11061738 -0.0212271 -0.024412343 0.033705883
000280 dc 32 a5 bd 17 c5 88 bc d7 1a f8 3c db ea 8f 3d
       -0.08066341 -0.016695542 0.030286236 0.07027217
000290 b1 19 e7 3d 41 b3 8a 3d 81 53 5c bc 29 62 19 bd
       0.11284197 0.06772471 -0.013447643 -0.03744713
0002a0 04 19 f9 3d a5 a9 0c 3c d0 57 b0 3d fa 7f 75 3d
       0.121629745 0.008585368 0.08610499 0.0599365
0002b0 8b 5f 2c 3d 88 38 52 bc 7d 4a 3d bd 3c 00 f6 3c
       0.042083304 -0.012830861 -0.046213616 0.030029409
0002c0 de 38 56 bb e2 c8 5f bd 84 58 08 bd aa 14 a8 bc
       -0.0032687704 -0.054634936 -0.03328754 -0.020517666
0002d0 c3 a9 8d 3c 9d 7d dd bd 57 e0 ae bd 83 a3 95 bd
       0.017292863 -0.108149745 -0.08538883 -0.07306578
0002e0 a1 df a3 bc 91 0e f4 bd 3a d2 dd bd de fa c9 bd
       -0.020004096 -0.11916841 -0.10831113 -0.09862302
0002f0 39 a8 1c 3d bb d5 26 3d 4d cc 78 bd 07 91 1f 3d
       0.038246367 0.040731173 -0.06074171 0.03895667
000300 d2 cc 55 3d 74 58 ab bc 93 50 28 bd c3 cd 3d 3d
       0.052197285 -0.020916201 -0.041092467 0.046338808
000310 af 6f 8b 3d 02 e7 0d be 34 4c 75 bd 95 b9 62 3b
       0.06808411 -0.13857654 -0.059887126 0.0034595479
000320 94 75 fa 3d 7b 29 e8 3c 66 6c 4b 3d ff c3 c0 bd
       0.122294575 0.028340092 0.049663924 -0.09412383
000330 3e 06 94 3d 78 ff c5 bd 47 72 34 3d 14 44 4b bd
       0.07227753 -0.096678674 0.044054296 -0.04962547
000340 a0 59 e8 3d 1a 97 40 3d 6a 6f db 3d 74 af 42 bd
       0.113452196 0.0470191 0.1071461 -0.047530606
000350 07 f7 da 3d 3f a7 bb bd 26 8a eb 3d c9 a1 d5 bd
       0.10691648 -0.09162759 0.11500959 -0.10431249
000360 3f 72 a1 3d d9 64 00 3e d1 28 9e 3d e7 c4 9b 3d
       0.07883119 0.1253847 0.07722629 0.076059155
000370 e6 f5 b2 bd 89 09 98 3d e0 af 93 bd 45 4f 87 3d
       -0.08738308 0.07423694 -0.0721128 0.06606916
000380 19 f1 8b 3d d2 d5 58 bd 3b ee 0e bd 8b d6 26 3d
       0.06833095 -0.05293829 -0.034895163 0.040731948
000390 c2 5d ba 3d d9 60 a9 3d 0e 58 02 be be 32 fb bd
       0.09099914 0.08270425 -0.12728903 -0.12265538
0003a0 78 f0 a6 bd c1 7c 82 bd 3a 26 8b 3d c5 81 80 3c
       -0.081513345 -0.06371451 0.067944005 0.015686879
0003b0 d4 9b ad bd d5 24 20 bd 1a 1e cb 3b 86 d7 9e 3d
       -0.084769875 -0.039097626 0.0061986567 0.077559516
0003c0 3f 22 b8 3c 3b fc de bd 81 41 99 3d d8 91 ab bd
       0.022477267 -0.10887953 0.07483197 -0.08377427
0003d0 8c 2f 9f bd f9 e6 a4 bd 54 a5 db bd 04 fb d4 3d
       -0.07772741 -0.08051867 -0.10724893 0.1039944
0003e0 c5 9a c2 bd a0 ab 83 3d 04 de d5 bb 54 8e 0a 3e
       -0.09502176 0.06429219 -0.0065267105 0.13530856
0003f0 69 37 4c bb 39 7e 8b 3d 40 f1 01 3e 09 7d b9 bd
       -0.0031160957 0.068111844 0.12689686 -0.09057052

gru.weight_hh f4 [192, 64]
000000 1c 43 b5 bd 20 55 1e 3d c6 18 96 3d 58 db a7 3c
       -0.08850691 0.0386554 0.07328944 0.020490333
000010 9c 2d c7 bd 44 65 4e bd e8 ac 32 bd 28 2d 5f 3d
       -0.09725496 -0.050389543 -0.043621927 0.054486424
000020 12 32 fd bd 40 1d 4f 3c 8c 8f 19 3d a0 5c 70 3c
       -0.12363066 0.012641251 0.037490413 0.014670521
000030 b6 a1 d4 bd 30 90 82 3d bc 30 9e bd 04 59 6d bd
       -0.103824064 0.06375158 -0.07724139 -0.05794622
000040 b4 ee 64 bd 6c 3a f5 3d 48 0d 8a 3c 48 f4 87 3d
       -0.055891708 0.11974034 0.016852036 0.0663839
000050 f8 cc 2f 3d 38 ce da bc fc 09 59 bd 16 c5 fa 3d
       0.042920083 -0.02670966 -0.052988037 0.122446224
000060 50 d2 ff bd a0 59 50 bd 50 e3 e1 bd 98 da 37 3d
       -0.12491286 -0.050866723 -0.110296845 0.0448862
000070 90 54 12 bc 3c e3 70 3d d8 66 b3 bc 94 01 bb bd
       -0.008931294 0.058810458 -0.021899626 -0.091311604
000080 30 dd 81 3d 04 80 c2 3d 00 92 70 bb 60 4e 66 3d
       0.06341016 0.09497073 -0.0036708117 0.056227088
000090 84 99 ae bd 7c 1b dc 3d b6 1c eb 3d 00 4b b2 3b
       -0.085253745 0.1074743 0.114800856 0.0054410696
0000a0 5a 0f c6 bd 90 f3 96 bc 10 0f c2 bc 36 e9 a1 bd
       -0.09670897 -0.018426687 -0.023688823 -0.079058096
0000b0 a4 56 19 bd 54 d9 19 3d 8a 23 ef 3d cc 8e 5a 3d
       -0.037436143 0.037560776 0.116767004 0.053358838
0000c0 9a 67 d0 bd 88 e2 e4 3d 00 49 68 bd 06 a6 d1 bd
       -0.101760104 0.1117602 -0.056710243 -0.102367446
0000d0 70 6d 6a 3c a8 32 a1 3d 30 06 6c 3d 30 d5 a2 bc
       0.0143083185 0.0787099 0.05762309 -0.019877046
0000e0 46 8c 87 3d 2c 4f e1 3d c8 ec e7 3c d4 2e e3 bd
       0.06618552 0.11001429 0.028311148 -0.11092916
0000f0 60 dd f6 bb 48 87 9f bd 20 45 a1 3d 38 47 dc 3d
       -0.007533714 -0.07789475 0.07874513 0.107557714
000100 96 1d da bd a0 84 8e 3c de 4d d8 bd 10 f1 6a 3d
       -0.10650174 0.017397225 -0.10561727 0.0573588
000110 4e 9e 8d 3d 8c b3 a4 3d a6 b7 c8 3d a8 86 ab bd
       0.0691496 0.08042058 0.09800653 -0.08375293
000120 e2 44 84 bd de 2d b0 bd 1e c8 8f bd f8 12 34 bd
       -0.06458451 -0.086024985 -0.07020591 -0.043963403
000130 f8 5b 3c 3d 00 41 77 3b b2 14 c2 3d b8 8c d4 3d
       0.045986146 0.0037727952 0.094766036 0.103784025
000140 64 0a 0c bd 80 8a 06 3d 3e 6f 9e bd e4 26 88 bd
       -0.034189597 0.032846928 -0.077360615 -0.06648043
000150 72 b0 ef 3d 2e bc d8 bd 66 06 be bd 4a 0d e2 3d
       0.11703576 -0.105827674 -0.09278564 0.11037691
000160 16 78 aa bd 62 e9 97 bd a4 fb 44 bd 10 63 57 3c
       -0.08323686 -0.07417561 -0.048091546 0.013146177
000170 a0 55 df bb 58 f3 50 3d a2 a7 85 3d 68 3b e7 bc
       -0.006815627 0.05101332 0.06526114 -0.02822657
000180 f4 20 36 3d f8 05 e5 3d a8 b4 05 bd 86 5e aa bd
       0.04446502 0.11182779 -0.03264299 -0.0831881
000190 b8 1f 31 bd 00 2c b1 ba c2 8b 95 bd d4 51 20 bd
       -0.04324314 -0.0013517141 -0.07302047 -0.039140537
0001a0 c0 a2 64 3d 74 34 07 3d 30 1b 26 3d a0 99 9b bc
       0.055819273 0.033009008 0.04055327 -0.018994153
0001b0 9a b7 db bd 6c 39 56 3d a4 b3 b5 3d b8 b5 31 3d
       -0.107283786 0.052300856 0.08872154 0.04338619
0001c0 fe d9 e3 bd b0 13 96 3d dc e6 9f 3d c6 ae a8 3d
       -0.11125563 0.07327974 0.07807705 0.082364604
0001d0 c0 24 7c 3b 10 85 a7 bc a4 e6 d5 3d 28 fe f8 3d
       0.0038474053 -0.020449191 0.10444382 0.121578515
0001e0 46 4f b4 bd 42 ec c5 3d 4c 70 ec bd 68 62 a1 3d
       -0.08804183 0.09664203 -0.115448564 0.07880098
0001f0 3e db a4 bd 18 88 9c bc 38 18 9e 3c 9c 22 08 3d
       -0.0804963 -0.019107863 0.019298658 0.03323613
000200 a0 c7 3f bc 3a 22 d9 bd 20 ed e2 3c 34 bf d1 bd
       -0.011705309 -0.10602231 0.02770096 -0.10241547
000210 54 11 4c bd 94 ad a6 3d 48 01 e1 bd 8c d1 5c 3d
       -0.049821213 0.08138576 -0.109865725 0.053910777
000220 22 8d b6 3d 80 ad 9c 3c 30 06 4b 3d 6c 7e 8b bd
       0.08913638 0.0191257 0.049566448 -0.068112224
000230 78 d8 88 3c 00 b5 00 3d 88 ef 11 3d 88 86 40 3d
       0.016704783 0.031422615 0.035628825 0.0470033
000240 b0 80 60 3c 18 cc fe 3d c4 73 71 3d a6 3f e6 bd
       0.0137025565 0.124412715 0.058948293 -0.11242609
000250 a0 93 8a bb 82 5a 8b bd ee 10 eb bd ea ad 91 3d
       -0.004229024 -0.06804372 -0.114778385 0.071132496
000260 e8 ef 50 3d 00 b3 c7 bb ce d9 c1 bd bc e8 22 bd
       0.051010042 -0.0060943365 -0.09465371 -0.039772734
000270 70 03 ae bc 20 cf 01 3c 10 87 0c bc c2 90 ef bd
       -0.021241874 0.007922918 -0.008577123 -0.11697532
000280 e0 20 c6 bb 78 e7 b7 3d 28 4d a1 3d 40 d8 4d bb
       -0.0060463995 0.08979696 0.078760445 -0.0031409413
000290 62 7f a6 3d 80 b4 c5 3c c4 a4 1a bd 50 43 b6 bc
       0.08129765 0.02413392 -0.03775479 -0.022248894
0002a0 bc c6 7d bd 92 7e a5 bd 54 c6 5a bd a8 92 f6 bd
       -0.061957106 -0.08080782 -0.053411797 -0.12039691
0002b0 10 4d 55 3c 40 06 27 3d 12 18 ea bd 30 a5 dc 3d
       0.013018861 0.040777445 -0.11430372 0.107736945
0002c0 76 65 ed bd 1c f3 6a 3d 9a 8c e3 3d 8c c2 c8 bd
       -0.11591618 0.057360753 0.11110802 -0.09802732
0002d0 80 c4 df 3d ec 82 93 3d f4 9f 52 bd 46 f9 f4 3d
       0.10926151 0.07202706 -0.051422074 0.11961608
0002e0 70 31 26 bd 02 38 d1 bd b6 54 da 3d e8 54 82 bc
       -0.04057449 -0.10215761 0.106606886 -0.015909627
0002f0 a0 b2 f8 3c 90 14 93 3c 70 44 c2 bd 06 03 8f bd
       0.030358613 0.01795414 -0.0948571 -0.069829985
000300 be 74 ef bd 80 b9 86 bd f0 4e d1 3d 9c eb 8a 3d
       -0.11692189 -0.0657835 0.10220134 0.0678322
000310 4c c1 49 bd d6 b8 c3 bd 22 b1 b4 bd d0 75 1e 3d
       -0.049256608 -0.09556739 -0.08822848 0.038686574
000320 50 13 2e 3c 4c 2d 81 3d 72 49 97 3d ba 7d de bd
       0.010624722 0.06307468 0.073870555 -0.10863824
000330 6e 48 cd bd b2 e6 c8 3d 6e a3 a0 3d 08 ae 3e bd
       -0.100235805 0.09809627 0.07843672 -0.046552688
000340 ea 78 e1 bd 54 6b 6e bd 50 f3 b5 3c cc 13 21 3d
       -0.11009391 -0.058207825 0.022210747 0.03932552
000350 70 f7 31 bd dc d3 2d 3d 00 92 cb ba b0 54 20 bc
       -0.043448865 0.042438373 -0.0015531182 -0.009785816
000360 b0 af fc bc 66 1e f8 bd c4 15 0e 3d 40 43 b7 bb
       -0.030845493 -0.12115173 0.034688726 -0.0055927336
000370 36 7a 8b bd 60 7b 05 bc 70 fa 35 bd b4 7e 81 3d
       -0.06810419 -0.008147091 -0.04442829 0.06322995
000380 0a 44 bb 3d 0c 4b a3 bd 84 00 e6 bd 0c d6 a4 bd
       0.09143837 -0.079732984 -0.11230567 -0.08048639
000390 00 93 bf bb d8 4a 50 bd b4 f6 02 3d 14 51 30 3d
       -0.005846381 -0.050852627 0.031973556 0.043046072
0003a0 4e 8a d1 3d 48 54 1e 3d 82 9c e9 bd 94 09 56 bd
       0.10231458 0.038654596 -0.114068046 -0.05225523
0003b0 24 30 39 3d 2e 76 d4 bd 54 7d 7b 3d ec e7 5c bd
       0.045211926 -0.103741035 0.06139882 -0.053932115
0003c0 2c 93 a7 3d 70 6d 7e bc a0 c5 60 bd d8 b1 e5 3c
       0.08182368 -0.015529022 -0.05487597 0.028038904
0003d0 80 fe bb bd 9c 7a 16 3d ee c8 e4 bd 48 67 c6 bd
       -0.091794014 0.036738023 -0.11171137 -0.09687668
0003e0 0c f0 d2 3d d0 5d a3 3c d6 c5 d1 3d a0 60 13 3d
       0.102996916 0.019942194 0.10242812 0.03598082
0003f0 34 33 6c 3d b0 d0 68 bd 4a 0e d3 3d b2 86 91 bd
       0.05766602 -0.056839645 0.1030546 -0.07105769

gru.bias_ih f4 [192]
000000 53 1a d1 bd 77 6e 0e bd 76 32 bd bb bc 77 d2 3d
       -0.10210099 -0.034773316 -0.0057738377 0.10276744
000010 ea d7 e3 bd a7 74 1d bc fd dc 99 bc 69 0c a5 bd
       -0.11125167 -0.009610332 -0.018782133 -0.08059008
000020 6a bf 64 3d 9e 3b 90 bb 5e 4f 21 3d d5 f7 58 3d
       0.05584661 -0.004401638 0.03938233 0.052970726
000030 b8 37 06 3d 79 e8 a9 bd 68 ad cb bd 47 53 88 3d
       0.03276798 -0.08296294 -0.09945184 0.06656509
000040 3d b4 8b 3d df 08 02 3e 90 6a dd 3d 13 0e dc bd
       0.06821487 0.12698697 0.10811341 -0.10744872
000050 f6 ab 23 3d 2a 74 84 bd f8 ea 47 3c 83 8c cc bc
       0.039958917 -0.06467469 0.012202017 -0.024969345
000060 6a eb e2 3d 9a a2 9b bb d9 6a 4e bd 8f 9a 72 bd
       0.11080058 -0.004749608 -0.050394867 -0.05922943
000070 58 b9 d2 bc 41 29 f8 bd 1f 90 0a 3d 2e 7f 1f ba
       -0.025723144 -0.121172436 0.03382885 -0.000608432
000080 c7 2b b8 3d c7 96 6c bb 33 58 4e bc b1 23 bd bd
       0.08992725 -0.0036100612 -0.0125942705 -0.09235323
000090 5b 83 cd 3d 4b 81 80 3d 5c 3f a4 bc 7c 6b 9e bd
       0.1003482 0.06274661 -0.020049743 -0.07735345
0000a0 a2 7d 8f bc 7f bf e2 bd ed 5b c0 bd e3 a1 96 bc
       -0.017515961 -0.11071681 -0.093925335 -0.01838774
0000b0 b8 de bb 3b e7 35 a2 bd 71 27 c8 bd 8e f6 9c 3d
       0.0057333373 -0.07920437 -0.09773148 0.07664214
0000c0 a1 d7 32 bd b0 bb e8 3c 57 bc 1e bd 44 a0 6e bb
       -0.04366267 0.028409809 -0.038753834 -0.0036411444
0000d0 ac 28 11 bc 32 9c a4 3d 15 ad aa 3d 88 48 89 3d
       -0.008859795 0.080376044 0.08333794 0.06703287
0000e0 d8 86 b1 3b 20 d9 81 bc 01 21 6b bd 0e c3 4d 3d
       0.005417686 -0.015850604 -0.05740452 0.050234847
0000f0 f3 9d 88 bc 6d 2d 10 3d 8e a4 46 bd 98 f7 b6 3c
       -0.016676879 0.03519957 -0.048496775 0.022334859
000100 c8 48 af bd a0 6a ee bd 9a 1a 98 bd f9 99 c2 bd
       -0.08558804 -0.11641431 -0.07426949 -0.09502024
000110 4d 22 0f bc ec bf 4e bd 84 7c 9d 3d 30 c9 d6 3c
       -0.008736205 -0.050476 0.07689765 0.02621898
000120 cd 5b 86 3d a3 60 43 3d 24 5f bc bd ae ab ff 3d
       0.06560478 0.04769958 -0.09197834 0.12483917
000130 15 c2 09 3d 9f ff 8f bd e1 76 ba 3d 56 d3 67 3d
       0.033632357 -0.07031178 0.091047056 0.05659803
000140 80 22 4e bc d9 4f f0 3c 50 2a ca bd f6 20 97 3d
       -0.012581468 0.02933495 -0.09871352 0.07379334
000150 81 3b 0a be 72 58 ed bd d5 0e 47 3d f6 58 66 3d
       -0.13499261 -0.11589135 0.04859813 0.056237184
000160 7d 09 de 3c 21 38 a2 3c af a0 ed bd e3 88 f8 bd
       0.027104134 0.019802155 -0.116029136 -0.12135484
000170 59 19 01 bd c9 cb b4 bd 43 e9 e0 3d 6c 54 b9 3c
       -0.031518314 -0.088279314 0.10981991 0.022623263
000180 79 8a a2 3a b8 dc 5d bd 7c b3 8a bd e4 60 8d bd
       0.0012400887 -0.054165572 -0.06772515 -0.06903246
000190 ee 8f 54 3d 29 81 be 3c fe 4a 1b bd 41 15 0c be
       0.051895075 0.023254948 -0.037913315 -0.13679983
0001a0 b6 77 62 3d 3d a4 87 3d e3 d8 30 3d 94 23 c3 bc
       0.055289946 0.06623123 0.04317559 -0.023820676
0001b0 72 89 d9 3d 4a 13 f1 bc 6a d6 6b bc 7a 99 38 bd
       0.10621919 -0.029428143 -0.014394382 -0.04506824
0001c0 d8 6f c3 bc 48 84 1b bd 29 cf ea 3c c9 98 0f bd
       -0.023857042 -0.03796795 0.028663235 -0.035057817
0001d0 62 80 ef bd c5 a5 01 3d 8a 23 d5 bd fe 76 20 bd
       -0.11694409 0.03165223 -0.10407169 -0.03917598
0001e0 43 ca a3 bd 41 49 cd 3d 44 c2 2a bd fc 21 ca 3d
       -0.07997563 0.10023738 -0.041689172 0.09869763
0001f0 e7 cf 2a bd c1 37 9c bd e3 aa 83 3d 2b cd 88 3d
       -0.041702177 -0.07627822 0.064290784 0.06679758
000200 f2 77 89 bd 5b 59 80 bd e4 bc 87 3d 56 4a 85 3d
       -0.06712331 -0.06267043 0.06627825 0.06508319
000210 13 3d db bd 79 73 5c 3d 90 cf 78 3d 23 40 3f 3d
       -0.10705008 0.05382106 0.060744822 0.046692025
000220 bc 87 38 bd 10 3a c1 bd ae b1 e2 3d a2 76 d8 3d
       -0.04505132 -0.09434903 0.11069046 0.105695024
000230 38 3b 03 3e 27 2f 8d bd 7e 3a 7f bd e4 1e a2 bd
       0.12815559 -0.06893759 -0.062311642 -0.07916048
000240 78 da 82 3d da 87 3a bd 48 13 8b 3c 18 fa ca bc
       0.06389326 -0.045539714 0.016976967 -0.024777457
000250 fc 8c ec 3d 32 06 eb bd 4c 7a a4 bd 08 10 95 3d
       0.11550328 -0.11475791 -0.08031139 0.07278448
000260 bc c6 90 3c 95 2d d8 3c 68 33 b3 3d bd 7e 6a bd
       0.017672889 0.026388923 0.08750039 -0.057249773
000270 bc 8a 55 bd a0 c5 9b bd 41 f6 be bd 6f 26 d4 bc
       -0.05213426 -0.07606053 -0.09324313 -0.025897233
000280 28 9b 20 bd a6 60 06 3b d8 fa 1d bd 83 01 36 3c
       -0.03921047 0.0020504384 -0.0385693 0.011108759
000290 9d 36 b3 bd cc e4 8f bd 76 53 80 3d fd 26 b7 bc
       -0.08750651 -0.070260614 0.06265919 -0.022357458
0002a0 22 e8 ce 3d 1c 8c ca bc d0 28 17 bc 8d 30 b2 3d
       0.101028696 -0.024725012 -0.009226039 0.087006666
0002b0 87 9e 33 3d bd 0d 8d bd 6f 1a d0 3d f7 05 b8 bc
       0.043852355 -0.06887386 0.10161292 -0.022463782
0002c0 8e 38 dd bb 4a fc 69 bd 87 f9 be bd 78 48 e7 3d
       -0.0067511266 -0.057125367 -0.09324937 0.11293119
0002d0 e8 37 2c 3c 29 a5 ce bd 90 e4 b2 3d 04 89 5e bd
       0.010511376 -0.100900955 0.08735001 -0.054329887
0002e0 f1 d3 23 bc b0 b1 e3 3d 1d 7c 22 3d f1 67 cb bd
       -0.009999261 0.111178756 0.039669145 -0.099319346
0002f0 0f bd 8a bc 04 92 19 bd 06 b7 3b 3d 2b 22 92 bd
       -0.016935853 -0.037492767 0.04582884 -0.07135423

gru.bias_hh f4 [192]
000000 7c 92 77 3d 3f 36 03 bc f4 41 0a 3d 48 b7 e3 bc
       0.060442433 -0.008008539 0.033754304 -0.027797356
000010 7e 43 96 bd 6f 85 91 bc 57 44 34 3d ee e2 9c bc
       -0.07337092 -0.017763821 0.044010486 -0.019151177
000020 f6 61 cf bd d6 a7 5f 3c 8f 33 e1 3d 71 da 46 3d
       -0.101261064 0.013650855 0.10996162 0.048548166
000030 70 07 6f bc bd cb c0 bd 8c f5 e0 bd 8a 17 cf bc
       -0.014589176 -0.0941386 -0.10984334 -0.025279779
000040 5f 89 bd bd e4 30 9f bd 88 c7 a5 bd f9 4c 55 3d
       -0.09254717 -0.07772997 -0.08094698 0.05207536
000050 46 31 7b 3d ca f3 79 3c 56 dd ed 3d 30 fb b8 3d
       0.061326288 0.015255878 0.11614482 0.09032285
000060 40 cd 97 bd 53 52 e4 3d 03 b1 61 3d ae b3 e1 bd
       -0.07412195 0.111485146 0.055100452 -0.11020599
000070 d0 40 80 3d 35 5c f5 bd 82 87 23 bd a6 3f bc 3d
       0.06262362 -0.11980478 -0.039924152 0.091918275
000080 14 0a dc 3c 75 b7 22 bb 27 08 d4 3d 27 d6 b6 3d
       0.026860274 -0.0024828587 0.103531174 0.08927565
000090 57 e9 e7 3d ef 7a 58 3c 65 6e e1 bd 0c ad 4d bc
       0.11323803 0.013212903 -0.11007384 -0.012553465
0000a0 da 44 a8 bc be 22 35 bc 8d 24 dc 3d 20 64 1b bd
       -0.020540643 -0.011055646 0.10749159 -0.037937284
0000b0 35 27 b7 bd 7d b1 a6 3d 5a ce 69 3d 6c 5a af 3d
       -0.08943025 0.08139322 0.057081558 0.085621685
0000c0 3b b6 82 3c f6 89 18 bd 52 bf 90 3d 12 cf 6a 3d
       0.015956035 -0.037240945 0.070677415 0.057326384
0000d0 a6 67 b9 3d 11 74 6c 3d fd 93 e0 3d 2a 05 96 3d
       0.090529725 0.057727877 0.109657265 0.07325204
0000e0 5c bf 3d bd b8 6c 23 bd 18 ab de bd e8 6f d5 3d
       -0.046325073 -0.039898604 -0.10872477 0.10421735
0000f0 6f 4c de bc 3b c1 84 3d 5c 76 7c 3c 02 d9 eb bd
       -0.027136056 0.06482168 0.015409078 -0.11516
000100 c8 b6 fd bd 66 9e de 3c 4f b3 4d 3b 7a ab 21 3d
       -0.123883784 0.02717514 0.0031387394 0.039470173
000110 49 b2 bb bd e5 18 98 3c d8 b9 30 3d c2 5c fc 3d
       -0.091648646 0.018566558 0.043145984 0.1232238
000120 a3 6d 28 3d 2a e3 bc bd 1a d8 98 bd 95 9c 9a 3a
       0.041120183 -0.092230156 -0.07463093 0.0011795933
000130 02 b2 a3 bd 8d aa 0c bd 71 bc 00 bd 29 e9 49 bc
       -0.07992937 -0.034342337 -0.03142971 -0.012323656
000140 f3 27 48 bd 87 ed af 3d 99 e4 3d bb 46 5d cd bd
       -0.048866224 0.085902266 -0.0028975366 -0.10027556
000150 09 f4 bd bd 7f b2 9a bc 8b 01 2d bd 85 fb d2 39
       -0.09275062 -0.018883942 -0.0422378 0.00040241718
000160 0c f3 3f 3d 60 d8 46 3d cc 7a 59 3d 63 25 ff 3a
       0.046862647 0.048546195 0.053095624 0.0019466098
000170 91 5d 86 3d c3 cc b6 3b e1 db 98 3d d5 93 8d bd
       0.06560815 0.0055786087 0.074638136 -0.06912962
000180 f6 13 74 3d 9a d0 dc 3d 56 98 19 bd 36 ec b0 3a
       0.05958935 0.10781975 -0.037498794 0.0013498131
000190 7a 07 00 be 49 84 cf bc 3f b9 05 3c fe 9b 3e 3d
       -0.12502852 -0.025331633 0.008161842 0.046535484
0001a0 bf e4 2a 3c bb 82 b0 bb 5a 0a 7e bd 79 36 1d bd
       0.010430514 -0.005386678 -0.06202159 -0.038382027
0001b0 8d a2 72 3d ae e1 16 3d 8d c7 a5 bd 82 16 56 bd
       0.05923705 0.03683632 -0.08094702 -0.05226756
0001c0 71 54 16 be fc 28 54 3c 3a 4c 9e bd b1 1c 00 be
       -0.1468065 0.012949225 -0.07729383 -0.12510945
0001d0 9a ff 2e 3d 8d c6 4f bd 4a 00 27 3d 44 cf f0 bc
       0.04272423 -0.050726462 0.04077176 -0.029395707
0001e0 45 e0 9a 3d fe 75 a8 bc 0a c2 09 bd d4 1e 17 bd
       0.07562307 -0.020564076 -0.033632316 -0.036894634
0001f0 73 93 f6 bd 3d 10 d9 3d 54 ef 8a bd 5e bf 3a 3c
       -0.120398425 0.105988 -0.067839295 0.011398165
000200 35 81 e3 3d 82 ce 54 3d d0 52 90 3c 59 3d e7 3d
       0.11108629 0.051954754 0.017617613 0.11290998
000210 fd 4b ba 3d 49 a1 8d bc 3f f6 aa bd ef d7 0d bd
       0.09096525 -0.01728882 -0.08347749 -0.03462976
000220 87 a7 99 bd 64 71 1f 3d 88 01 de bd 8b 33 4e bd
       -0.075026564 0.038926497 -0.10840136 -0.050342124
000230 61 49 01 3d 81 1d 5f bd d1 4d 30 bc 55 30 9f 3d
       0.03156412 -0.054471496 -0.01076074 0.077728905
000240 be 8a 30 3d 21 cd d7 3d b0 c9 01 be 34 32 ed 3d
       0.043101065 0.10537172 -0.12674594 0.11581841
000250 92 bd 04 be 42 d6 5c 3b b0 72 b3 3d f0 8d c7 3d
       -0.1296294 0.0033697044 0.08762109 0.09743869
000260 61 9a fb 3d 2a 91 20 bd 68 89 a7 bd 43 1d 9d 39
       0.12285305 -0.03920094 -0.08180505 0.00029967175
000270 16 e4 39 bc 98 a9 08 3d 4e 99 bf 3d dd 6e 71 3d
       -0.011345884 0.033364862 0.093554124 0.058943618
000280 90 ea 86 bd 78 7d 5b 3d 9a 28 c4 3c 4a 0e 9f bd
       -0.06587708 0.053586453 0.023945142 -0.07766397
000290 40 cd e8 3d e0 c7 34 bd 80 0c 91 3d 30 0b dd bd
       0.11367273 -0.04413593 0.07082462 -0.107931495
0002a0 6f 57 93 bd 2d 7c a0 bc 7d 48 05 be 3a af bc 3d
       -0.07194411 -0.019590462 -0.13015933 0.09213109
0002b0 89 c0 a0 bc f7 08 e5 bd fb 71 93 3d 3f 3d ff 3d
       -0.019623058 -0.111833505 0.071994744 0.12462854
0002c0 0d 9e f9 3d 1d 09 fa bd 3c 2c d1 3d d8 17 9d bd
       0.12188349 -0.122087695 0.10213515 -0.076705635
0002d0 2f 94 85 bb f5 cd 5e 3c 68 fc 40 bd ea 74 ad bb
       -0.0040765028 0.013598909 -0.047115713 -0.0052934783
0002e0 5f a1 75 bd 54 74 89 3a 1d 82 89 3d 59 cc 89 3d
       -0.05996835 0.0010486939 0.0671427 0.06728429
0002f0 5c 8a 9f bd d7 47 de 3d 5d 7d f6 bc e9 f3 52 3d
       -0.07790062 0.10853546 -0.030089075 0.051502142

output_layer.weight f4 [1, 64]
000000 75 4a f4 bd 2e 64 43 3d af f3 07 be 42 07 06 be
       -0.11928264 0.04770296 -0.13276552 -0.13088706
000010 cb 82 bc 3d d9 f8 2f bd b9 76 f2 3d 10 43 ca bc
       0.09204634 -0.04296193 0.11839051 -0.024690181
000020 98 62 2d bc a8 fa e0 3d 88 1a dc bd b9 3e 3f 3d
       -0.010582589 0.10985309 -0.10747248 0.046690676
000030 85 6c f4 bd 07 95 8b bd 59 dd 52 3d 94 bd 78 bd
       -0.11934761 -0.06815534 0.051480625 -0.06072767
000040 7d 79 0a 3d be da 49 bc 2b 53 c1 3c 51 a2 7e bd
       0.033807267 -0.012320219 0.023599228 -0.062166516
000050 81 45 ba 3d 43 b1 1a 3c 66 bb 10 be 49 90 06 be
       0.09095288 0.009441677 -0.14133987 -0.13140978
000060 4a ce 08 be ec 79 7c 3d bf 7e f7 bc 7c f7 a1 bd
       -0.13359943 0.06163971 -0.030211804 -0.07908532
000070 0c d3 d3 bd 46 24 ce 3c 44 91 d7 bd 0f 99 db 3c
       -0.10342988 0.02516378 -0.10525754 0.026806382
000080 c1 09 7a bc 4d a9 d7 bc 87 78 b1 bd ce b3 50 bd
       -0.015261115 -0.026325846 -0.08665567 -0.050952725
000090 77 1f ba bd ba 50 b9 3d e7 26 fd 3d 46 59 01 be
       -0.09088033 0.090486005 0.12360936 -0.12631711
0000a0 c2 0d 93 3d 12 93 5d 3d 6d 6e c0 3d 58 a3 96 3d
       0.071803585 0.054095335 0.09396062 0.07355374
0000b0 fd 7c 61 bc a1 fa 05 be 41 81 d6 3c f0 4f 3c bc
       -0.01376271 -0.13083889 0.02618468 -0.011493668
0000c0 ad 29 ed bd 61 ee 1d 3c fe 03 93 bd 5f 91 0c 3e
       -0.11580215 0.0096393535 -0.07178496 0.1372733
0000d0 8b bb b0 3d 50 88 d8 3d df a1 a7 bd 14 84 cc 3d
       0.08629521 0.105728745 -0.08185171 0.099861294
0000e0 26 fa bb bc 15 d1 d0 3c 2a 2e 96 3d ea 92 f0 bd
       -0.022946429 0.025490323 0.07333024 -0.11746772
0000f0 2d 2f 41 bd 50 5f 3f bd 16 f5 dd bd e0 6b d9 bd
       -0.04716413 -0.046721756 -0.10837762 -0.10616279
