src/hungary vzv/best_model.pth (torch, 2472 bytes, 3 tensors)

conv1.bias f4 [16]
0	0xbde2f18c	-0.11081228
1	0x3e0e49d2	0.13895348
2	0xbda22a98	-0.0791828
3	0x3e02fd6d	0.12791987
4	0x3dc87ce0	0.09789443
5	0xbda5ef63	-0.081023
6	0x3dd8aa4b	0.10579356
7	0xbdca0e04	-0.098659545
8	0xbd2498c9	-0.04018477
9	0x3d8993f1	0.06717671
10	0x3d361260	0.044451118
11	0x3d8c55fb	0.06852337
12	0xbd38ab6e	-0.045085363
13	0x3dfabd3a	0.12243123
14	0x3d9f3b5f	0.07774996
15	0x3e051e61	0.1299987

conv1.lin.weight f4 [16, 2]
0	0xbe5ad0b8	-0.21368682
1	0x3c2424b8	0.01001852
2	0x3c0c7f62	0.008575292
3	0x3eb67202	0.35633856
4	0x3de45762	0.111494794
5	0x3eeeda9e	0.46651167
6	0x3e811f42	0.2521916
7	0x3e28187c	0.1641559
8	0xbd086bcd	-0.03330593
9	0x3f01d5aa	0.5071665
10	0xbc89bfe4	-0.016815133
11	0xbebcdb62	-0.36886126
12	0x3eca31e0	0.39491177
13	0x3f15bede	0.58494365
14	0x3ec8ab92	0.39193398
15	0x3c80dfad	0.015731657
16	0xbd97a233	-0.07403984
17	0x3d2b61b4	0.041841224
18	0x3efd13e4	0.49429238
19	0xbda9f38c	-0.08298406
20	0xbef58dca	-0.4795974
21	0x3e7f9ec1	0.24962904
22	0xbf170f59	-0.59007794
23	0xbca2ad5f	-0.01985806
24	0x3e8fcc2c	0.28085458
25	0xbe853b33	-0.26021728
26	0x3da32ad8	0.07967156
27	0x3f265d02	0.6498567
28	0xbf08ea9d	-0.5348299
29	0x3e4b5ffa	0.19860831
30	0xbe4ec893	-0.201937
31	0xbea4ffb1	-0.32226327

conv2.lin.weight f4 [1, 16]
0	0x3e099a95	0.13437875
1	0x3e05d426	0.1306921
2	0xbce57be0	-0.02801317
3	0x3dcfa04f	0.10137998
4	0x3ea41eb7	0.32054684
5	0xbba6c3d8	-0.0050892644
6	0x3e2f9273	0.1714571
7	0xbe5bb361	-0.21455146
8	0x3f0c79f8	0.5487361
9	0x3ef7e820	0.48419285
10	0xbdd16a63	-0.1022537
11	0xbf2dc403	-0.67877215
12	0x3db96c6d	0.09053884
13	0x3e0c0816	0.1367496
14	0xbdb33966	-0.08751182
15	0xbe784f97	-0.24249111
